FUEL EFFICIENCY/linear.tflite (tflite, 21368 bytes, 5 tensors)

sequential_2/dense_7/BiasAdd/ReadVariableOp f4 [64]
000000 26 cf d0 3d be 7b b2 3d c5 b8 41 bd 75 75 d2 3d
       0.101957604 0.08715008 -0.04729535 0.102763094
000010 98 48 10 bd ba 0e dd 3d 12 7b ea 3d 47 c3 d6 3d
       -0.03522548 0.107938245 0.11449255 0.10486465
000020 54 67 ca 3d 39 a7 53 bb cf 56 98 bc 3b 79 ce 3d
       0.098829895 -0.0032295717 -0.018596081 0.100817166
000030 95 e5 40 bd 00 00 00 00 35 91 d3 3d 47 87 71 3d
       -0.047093946 0.0 0.103304304 0.0589669
000040 d0 d6 db 3d a5 2f ad 3d a4 4c 91 bd e8 cd a0 3d
       0.107343316 0.08456353 -0.07094696 0.078517735
000050 27 dc 8e bd 2a ca 24 bd e7 15 ce 3d 1c 5b 16 3d
       -0.069755845 -0.04023186 0.10062771 0.036707982
000060 2c c1 d1 3d 0e 82 68 3d ad a6 d4 3d bf a7 d2 3d
       0.10241923 0.056764655 0.103833534 0.10285901
000070 26 1e db 3d c8 6a d3 3d 2e d6 e1 3d 4c fc d2 3d
       0.1069911 0.10323101 0.1102718 0.10302028
000080 24 ec d2 3d 40 e0 33 bd 60 9f 75 3d 16 62 da 3d
       0.102989465 -0.043915033 0.059966445 0.1066324
000090 6c 4c 8a 3d fd ea d8 3d 8d 7a e6 bc 00 00 00 00
       0.067528576 0.105916955 -0.028134609 0.0
0000a0 34 79 99 3b 48 07 96 3d 3c bf 37 bd 9a 9b de 3d
       0.004683638 0.073256075 -0.04486011 0.108695224
0000b0 07 b8 da 3d d8 5b 7c 3d ae 4d 96 bd 83 ab c9 3d
       0.10679632 0.061611027 -0.07339035 0.098471664
0000c0 4a bc d2 3d 0c 5e f3 3d 4a 05 cb bb 9c aa d5 3d
       0.102898195 0.118831724 -0.006195699 0.10432932
0000d0 27 6a d6 3d 42 a0 dc 3c ec ee 2a bd 9a bc 8e 3d
       0.10469466 0.026931886 -0.04173176 0.06969567
0000e0 db da db 3d d3 62 cf 3d 64 99 c9 3d a5 6b dc 3d
       0.10735103 0.10126271 0.0984371 0.10762719
0000f0 94 ed c8 3d 88 37 8b 3d db c7 01 bd 28 cc 6b bd
       0.098109394 0.06797701 -0.031684738 -0.057567745

sequential_2/dense_6/BiasAdd/ReadVariableOp f4 [64]
000000 8d b1 2d 3e c5 f9 17 3e 8d ae b5 3d 1b cb 64 3e
       0.16962261 0.14841373 0.088711835 0.22343104
000010 5e fd 61 3e 11 3d ee bd 5d 55 3c 3d 2d 2e 53 3e
       0.22069308 -0.11632741 0.045979846 0.20623083
000020 d3 09 f4 bc 96 a9 f5 bc 89 80 e1 3d a1 93 b0 3e
       -0.02978984 -0.029988091 0.11010844 0.34487632
000030 dc 24 ea 3d 3e d1 5c 3e 5d 04 0b 3e 46 de 87 3a
       0.114328116 0.21564195 0.13575883 0.0010365925
000040 60 2b a6 3e dc c0 8f 3e 4d 4c 3f 3d 01 91 39 be
       0.32454967 0.28076828 0.046703625 -0.18121721
000050 a2 52 e6 3c a3 84 21 3e c0 67 55 3e 7f 66 b8 3e
       0.028115574 0.15773253 0.20840359 0.36015698
000060 6a 10 88 3d 21 9c 0a 3e 17 35 48 3d ad 8e 08 3d
       0.06643756 0.13536121 0.048878755 0.03333919
000070 7b 29 60 3d 47 6b 5d 3e dc 67 15 3e 96 ed d7 3d
       0.05472706 0.21622954 0.145904 0.10543363
000080 09 54 99 3e db ef 23 3e bb 1f 33 3e a0 2c 79 3d
       0.29946926 0.16009466 0.17492573 0.060833573
000090 45 b6 7c 3d 7a 6c a9 3c 75 3f ec 3d ff 5a 20 3e
       0.061697263 0.020681608 0.11535541 0.15659712
0000a0 02 3d 2a 3d 99 46 8b 3e d5 19 5a 3d 5e 42 13 3e
       0.041562088 0.272023 0.05324729 0.14380786
0000b0 20 dc 29 3e be 12 60 3e c8 c3 10 3e 5b 1c 04 3f
       0.16587877 0.2188215 0.14137185 0.51605767
0000c0 bc 93 a5 bc 38 ef ff bc 07 ca c8 3d 33 3e 35 3e
       -0.020212047 -0.031241998 0.09804159 0.17699508
0000d0 68 60 9e 3e 42 c8 1b 3d 07 66 11 3d d7 b6 4c 3e
       0.30932927 0.038032778 0.03549769 0.19991623
0000e0 11 34 de 3d b0 95 a6 bc eb 2b a4 3d ff 2f 5d 3e
       0.10849775 -0.020335048 0.08016189 0.2160034
0000f0 0b d0 8d 3e e7 b1 be 3d 69 af 38 3e f9 d3 04 3d
       0.27697787 0.09311276 0.18035664 0.032428715

sequential_2/dense_6/MatMul f4 [64, 9]
000000 a9 d5 35 3e 73 aa e6 be f4 72 bf bd 66 f4 d8 bc
       0.17757286 -0.45051917 -0.093480974 -0.026483726
000010 2e 1b 4d be e8 85 3e be c8 70 62 be 0c 18 72 3e
       -0.200299 -0.18605769 -0.22113335 0.23641986
000020 44 be e6 3d b6 a2 e6 3c 97 fb dd be 25 79 b5 bd
       0.11266759 0.028153758 -0.4335601 -0.08860997
000030 5e fb a0 3d 8e 45 5e 3d 02 51 af be 38 37 d3 3e
       0.078604445 0.05426555 -0.34241492 0.41253066
000040 bc f0 0d 3e 90 38 e2 bd f9 a7 68 be 68 d2 c1 be
       0.13861364 -0.11045945 -0.22720326 -0.3785584
000050 46 4e ac be ac 5c 0f bc 3d ba d9 be cc 7b f8 bd
       -0.33653468 -0.008750122 -0.425249 -0.121329874
000060 de 4a 83 3d 48 98 ab 3e 92 e7 a5 3e d7 16 1f 3c
       0.06410764 0.3351462 0.32403237 0.009710035
000070 74 d3 4e be e9 1f 9e 3e 0b 8d a5 be 35 69 88 3e
       -0.2019785 0.3088372 -0.3233417 0.26642767
000080 a1 d6 c7 bb 1f 61 4c be dc 8e 4f bd 63 ff 8c 3e
       -0.006098584 -0.19958924 -0.05067335 0.27538595
000090 98 a8 87 3d c8 16 14 bf 22 0a 87 3e 0c 73 93 3d
       0.066239536 -0.5784726 0.26374918 0.07199678
0000a0 a5 81 39 be 59 3e d1 be 01 77 90 3e 46 f0 5b bd
       -0.18115862 -0.4086788 0.28215793 -0.05369594
0000b0 ec 89 c9 be 37 e9 d9 bd 05 58 a4 3e b1 c5 88 3e
       -0.3936304 -0.10640185 0.32098404 0.26713327
0000c0 a6 b2 23 3e 9f f5 a6 3e e9 a1 61 3e 10 c2 80 be
       0.15986118 0.3260927 0.2203442 -0.25148058
0000d0 01 a4 89 3e 0a 0f 17 be c0 9c f9 bd 1b ed 53 3e
       0.26882938 -0.1475183 -0.12188101 0.20695917
0000e0 37 52 34 be 36 7c 4c 3d f3 fd 4b 3e 96 15 f6 bd
       -0.17609487 0.049923144 0.19921093 -0.12015836
0000f0 39 68 87 3e 44 31 86 be 2f d7 34 be 69 6f 5b 3e
       0.26446703 -0.26209462 -0.17660211 0.21429218
000100 1d 8d ac 3c 79 f1 71 3d 46 e7 fb bd 48 e3 f5 bd
       0.021063382 0.059068177 -0.12299971 -0.12006241
000110 24 15 f9 3e 63 a5 a3 bc b3 cf 2a be 64 55 93 be
       0.48648942 -0.019976323 -0.16680793 -0.28776085
000120 79 51 03 be e0 c8 0e 3f 65 86 bd bb 5f a0 77 be
       -0.12824048 0.5577526 -0.0057838433 -0.2418227
000130 fe 9e 79 3e e1 86 1b 3d eb 40 ed 3d c3 e0 9c be
       0.24377057 0.037970427 0.11584648 -0.3064023
000140 9a 50 83 be 3c 5d 7c be 8d ba 95 3d 3c 6e 12 3d
       -0.25647432 -0.24644941 0.07310972 0.03574966
000150 0e 8e e8 be 2e 67 25 be b7 da a4 3e 7a 4f d7 3d
       -0.4542088 -0.16152641 0.32198116 0.10513206
000160 d1 ea 00 3e 79 68 32 3e a1 5c 21 3d 77 ca 4b be
       0.12589575 0.17422666 0.03939498 -0.19901453
000170 38 81 b6 be 18 60 25 3d da fc 05 3e 94 5f bc be
       -0.3564546 0.040374845 0.13084736 -0.3679167
000180 98 b6 ba 3e df 76 3d be 36 08 89 ba 55 ef 74 3d
       0.36467433 -0.18502377 -0.0010454718 0.059798557
000190 89 3f ed be 62 dc 4f be dc f0 41 3d b4 92 93 bd
       -0.46337536 -0.20298913 0.047348842 -0.07205716
0001a0 6b 4d af be d3 fc 62 bd d5 ab f4 be 02 15 4c 3e
       -0.34238753 -0.055416893 -0.47787347 0.19929889
0001b0 ae 2e 1c be 05 1b 4a 3e 0a b9 78 3d 05 3e a8 bd
       -0.15252182 0.1973687 0.060723342 -0.08214954
0001c0 11 a3 41 be ea 11 ca 3e 19 c2 82 be 7f 02 8b 3e
       -0.18909861 0.39466792 -0.2553871 0.27150342
0001d0 1c f3 ab bd 34 32 dc 3d 7b 32 95 bd 47 f6 05 bf
       -0.08395979 0.10751763 -0.07285019 -0.52328914
0001e0 54 cb 86 bd bf 2a b0 3e 19 d1 20 3e bf 8a 29 3e
       -0.065817505 0.34407613 0.15704764 0.16556834
0001f0 ad 6a a9 3d d3 69 e0 3d 18 b2 e5 bd 17 d0 05 bf
       0.082723 0.10957684 -0.11215609 -0.52270645
000200 e8 f3 63 3c 7d c8 d9 3c 01 10 40 be ea ef 8b 3e
       0.013913132 0.026584858 -0.18756105 0.27331477
000210 56 16 a0 3e e9 3f 46 3e b2 27 ee be 9b ea 68 3e
       0.3126704 0.19360317 -0.4651466 0.22745745
000220 17 ac 81 bc 87 9c a1 be 18 66 85 be 94 cf cf 3e
       -0.01582913 -0.31564733 -0.26054454 0.40588057
000230 87 a6 86 3e 44 9e 0c bd 7f 13 9a be 9d 87 b9 3e
       0.26298925 -0.03433062 -0.30093 0.36236277
000240 6c ec 7d bc ad 8d 08 bf 0c 35 bf 3d 76 94 24 3e
       -0.015498262 -0.5334118 0.0933629 0.16072258
000250 42 de 7b be ad fb 82 be 1f 40 fe 3c b0 5e 46 3e
       -0.24596503 -0.25582638 0.031036435 0.19372058
000260 9b 61 16 bf d0 ba 80 3d 48 b5 e3 3e f8 e9 89 3e
       -0.58742684 0.06285632 0.44474244 0.26936316
000270 6f 79 bd be 25 4e 8e be 4d c5 b7 3e b0 4f d6 3e
       -0.3700671 -0.27793995 0.35892716 0.41857672
000280 25 37 c1 be 90 fe 0b bb 4f 75 9d be ba 57 3e 3e
       -0.37737384 -0.0021361448 -0.30753562 0.18588153
000290 ca 9c ef 3e 72 91 e7 3e ce 3b ce be 8a cd 5e be
       0.46799308 0.45228153 -0.40280002 -0.21758094
0002a0 86 2b fb bd b0 1c d9 be fc 50 6a be cf 4a 97 3e
       -0.12264161 -0.424047 -0.22882456 0.29549262
0002b0 51 7b ed 3d 16 ef 1c 3e d1 16 6d 3c f8 e0 7c 3e
       0.11595786 0.15325579 0.014470772 0.24695194
0002c0 32 17 a8 3e cf 79 2b be 4d a0 a8 3e f0 69 0d be
       0.32830197 -0.16745685 0.329348 -0.13809943
0002d0 ed d7 7f be 17 fe 50 3e 53 84 8f 3d 61 2d e6 be
       -0.24984713 0.20409428 0.07007661 -0.44956496
0002e0 d9 9b 61 bd f3 c8 a2 3e 52 71 97 be 24 96 00 be
       -0.05508027 0.31793937 -0.29578644 -0.12557274
0002f0 15 33 d2 bd 71 dc 53 bd 82 0c b8 be 81 f7 55 3e
       -0.102636494 -0.0517239 -0.35947043 0.20895196
000300 4f bf 55 be 97 a6 b2 be e1 b2 dd 3d 1e ea a8 be
       -0.2087376 -0.34892723 0.10825134 -0.32991117
000310 dd f1 75 3e 9a e4 bc 3e 78 15 b8 3e 04 79 74 3e
       0.24018045 0.3689316 0.3595388 0.23874289
000320 91 69 bc be c9 0b ba bd b6 11 8b 3e 55 a3 23 3e
       -0.3679929 -0.09084279 0.2716195 0.15980275
000330 75 40 89 3e e5 6a da bd 4f 3a e5 be 69 03 43 3e
       0.2680699 -0.1066492 -0.44771048 0.1904427
000340 02 f4 f3 3e 2d 44 f3 3e 7f 1f 8f 3d 7f a5 a8 be
       0.476471 0.47512951 0.06988429 -0.32938763
000350 91 2b 81 be 1c 21 55 3d c8 44 16 bf be 04 5f 3d
       -0.2522855 0.05203353 -0.586987 0.054447882
000360 70 20 1a 3c ab 8e c6 be d9 04 fe be 73 86 89 be
       0.009407148 -0.38780722 -0.49613073 -0.2686039
000370 78 e0 0f be 31 47 d0 bd 29 7e 80 be 94 ce 91 bd
       -0.14050472 -0.10169829 -0.25096253 -0.0711948
000380 58 37 54 be e1 89 05 be 33 7e be bd 72 50 f4 be
       -0.20724237 -0.13040878 -0.09301414 -0.47717625
000390 37 54 d6 3d 9f c1 fd 3c ff 57 30 3f a4 9e 84 3e
       0.104652815 0.030976115 0.6888427 0.25902283
0003a0 60 9f 74 bd 82 82 3f 3e 8b 3a 14 be a0 59 00 3f
       -0.059722304 0.18702129 -0.14475457 0.50136757
0003b0 51 21 40 bd 7f cd 6b be be 04 19 3e 4c d4 78 3e
       -0.046906773 -0.2302761 0.14943215 0.24299735
0003c0 57 2c aa 3e dc 2a 90 be a2 86 80 be bb a1 d8 bd
       0.33236954 -0.281577 -0.25102717 -0.10577723
0003d0 64 1b e7 bd 3e c6 91 3e 4c 8e 08 3f 1b 3b ee 3e
       -0.11284521 0.2847156 0.5334213 0.4652947
0003e0 68 b4 43 3d 2a 80 24 be f6 c5 b5 3e c2 c3 a2 3e
       0.04777947 -0.16064516 0.35502595 0.31789976
0003f0 a6 b2 c1 bd 40 48 3d bc 86 1b 9e be 37 4f 86 3e
       -0.094579026 -0.01155287 -0.30880374 0.2623231

sequential_2/dense_7/MatMul f4 [64, 64]
000000 e8 35 6f 3e 57 3a 8b 3e ed 36 16 3e 71 92 aa 3d
       0.23360407 0.27192947 0.1466939 0.08328713
000010 da 96 4f 3e 5e bc 94 3e 70 3c b7 bb 8d 53 8a bd
       0.20272389 0.29049963 -0.0055919215 -0.06754217
000020 70 96 d1 3d 53 2e 65 3d ac 3f 8d bd 8a f7 b3 3e
       0.10233772 0.05595238 -0.0689691 0.35149795
000030 bc e7 71 3e a4 76 93 3e de 72 cb 3d 2b 1c f4 3d
       0.23623556 0.28801453 0.099340186 0.11919435
000040 d0 7a af 3d 7f 95 d9 3e 91 69 8e 3e a1 74 5c 3e
       0.085683465 0.4249687 0.27814916 0.21528865
000050 d3 10 40 3d 4d 05 1e 3e c1 66 8b 3d 16 a1 43 3d
       0.046891045 0.1543171 0.06806708 0.047761045
000060 a9 e6 13 3e da 4b 22 3e 07 05 2a bd 05 2b ec 3d
       0.14443459 0.15849248 -0.0415087 0.11531643
000070 72 8a 95 3e 36 75 5e 3e fb 1d 51 3e 78 9d 0b bd
       0.29207188 0.217244 0.20421593 -0.03408572
000080 42 41 62 3e c4 b1 7d 3e 50 8a e9 3d 1f 2e a4 3d
       0.22095206 0.24774843 0.11403334 0.080166094
000090 fe 7e d2 bc 36 51 18 bc c4 ec 1e 3e 1f 49 a1 3e
       -0.02569532 -0.009296706 0.15520006 0.315011
0000a0 00 34 72 3e e6 f0 60 be d6 02 7c bd 94 34 66 3d
       0.23652649 -0.21966895 -0.061526142 0.056202486
0000b0 af b3 bc 3d 97 3b a7 3e 7d d5 1b 3e d7 15 3b 3e
       0.092139594 0.3266265 0.15218158 0.1827005
0000c0 f9 3c 99 3e da 0c c2 bc 08 b0 08 3e 6a 6c f7 bd
       0.2992933 -0.023687769 0.133484 -0.12081225
0000d0 50 02 80 3e c7 ee 47 3d ed aa 8a 3e 0f a2 97 3e
       0.25001764 0.0488117 0.2708353 0.29615828
0000e0 c9 04 ac bd d2 68 36 3c 0d 82 43 3d ff c3 3e 3e
       -0.0839935 0.01113339 0.047731448 0.18629454
0000f0 eb 1e 03 3e 1b 26 99 3d 0c 4e 6f 3e 27 80 83 bd
       0.12804763 0.07477971 0.23369616 -0.064209275
000100 7f 69 d5 bc 79 58 c8 bd 92 28 22 be f7 ba 9d 3e
       -0.026051281 -0.097825 -0.15835789 0.30806705
000110 05 69 bb 3d 8a 9d ba be 66 39 77 3e 27 84 1d 3d
       0.0915089 -0.36448318 0.2414299 0.03845611
000120 86 d2 e5 3d f8 78 83 be 0e 98 20 3e 25 4c 17 bd
       0.11221795 -0.2567823 0.15683004 -0.03693785
000130 2a e9 2d bf b2 88 84 be ed b8 c7 bf bd 7b da 3e
       -0.67933905 -0.2588554 -1.560331 0.4267253
000140 8b 7d 28 3e e2 88 cd bd 5f fd cd bc e3 e7 d4 be
       0.16454141 -0.10035874 -0.02514523 -0.41583166
000150 3d 4c 5c bc 95 b2 8b bd 4b 30 57 be ec 4a 28 3e
       -0.013445911 -0.06821171 -0.21014516 0.1643483
000160 80 f2 3e bf b5 32 ff 3e 3b e0 0a be c8 b0 5f 3f
       -0.74588776 0.49843374 -0.135621 0.8737912
000170 8b 28 fc be 54 e1 75 3d db af 6f bd 18 4b 1e be
       -0.49249682 0.060029343 -0.05851732 -0.15458333
000180 43 5b 83 3e 6b f6 a3 3d 30 cc 69 bf ad 60 a4 bf
       0.25655565 0.08005985 -0.9132719 -1.2842003
000190 2a 48 c6 3e 8f 04 d8 3e d2 01 31 bf cf 57 34 bf
       0.38726932 0.42190978 -0.691434 -0.70446485
0001a0 dd 75 de bc 47 f7 23 3d 18 36 c6 be cf 96 cf 3e
       -0.027155811 0.040030744 -0.38713145 0.40544745
0001b0 c5 fb 85 3d ad cb 94 3e 18 ce 9d 3d 2f f1 16 3e
       0.06542162 0.29061642 0.07705325 0.14740442
0001c0 74 81 04 3f 6c 8e 89 3d 43 cc 73 bf b7 52 1b be
       0.5176003 0.06716618 -0.95233554 -0.15168272
0001d0 1a 83 3f 3d 56 ec c2 bd 1e f5 d9 3e 0c 88 09 bf
       0.046755888 -0.09517734 0.42569822 -0.53723216
0001e0 ae c4 b6 3c ca 79 de be 0f 6e 8e be 29 0f 80 3f
       0.022310581 -0.43452293 -0.27818343 1.0004627
0001f0 ed ce 86 3e b6 dc d9 bc e3 a0 9a 3e c6 8f 75 be
       0.26329747 -0.026594501 0.30200872 -0.23980626
000200 72 59 cf 3e e7 99 95 3d 12 67 29 3e 0b 76 10 bf
       0.4049793 0.07304745 0.16543224 -0.5643012
000210 f4 ab f6 3d b4 f1 ac 3e dc d9 e9 be 08 21 48 3e
       0.12044516 0.33778155 -0.45674026 0.1954385
000220 30 30 ba be 40 59 01 bf 92 d9 c3 be f0 97 9e bd
       -0.3636489 -0.5052681 -0.3825193 -0.077438235
000230 20 b4 4e be b9 39 0d bf 75 66 39 3c 03 44 51 3f
       -0.201859 -0.551662 0.011315932 0.817444
000240 0f 93 8a 3e 5d b6 8f 3e c0 08 e2 bd 7c ae 7d be
       0.27065322 0.2806882 -0.11036825 -0.24773592
000250 a2 4f 33 bf f5 8e c7 bd 53 8e 86 be 8d 6d a1 3e
       -0.70043385 -0.09744064 -0.2628046 0.31528893
000260 27 1f b1 3e 40 6b c0 3f 86 61 cd bd c5 dd 4d 3e
       0.3459408 1.503273 -0.10028367 0.2010413
000270 ea 18 ab bd 73 e6 4d 3e f8 b5 02 3b 0c 99 0d be
       -0.08354361 0.2010744 0.0019944888 -0.13827914
000280 1f 39 71 3e 73 80 46 be 0d c8 52 bf 54 18 d1 bd
       0.23556946 -0.19384937 -0.82336503 -0.10209718
000290 33 d2 9d 3e 94 6c 4e bd f3 f0 e6 be 25 60 36 3e
       0.30824432 -0.050396517 -0.45105705 0.17810114
0002a0 09 a8 a7 3d 3b a9 db bd 60 e0 50 bd 20 c1 40 be
       0.08186347 -0.107256375 -0.05099523 -0.18823671
0002b0 f6 1a a1 3e 7c 0e 0e be 75 e5 b2 bd c7 28 d2 3e
       0.31465882 -0.13872713 -0.08735172 0.41046736
0002c0 81 25 e2 3e 34 8d c3 bd 4e cc 0a bf 63 d5 bb be
       0.44169238 -0.09548417 -0.54217994 -0.3668624
0002d0 f1 16 6e 3e cd fb 5b 3e 69 d0 a8 3d b7 4f f4 be
       0.23250939 0.21482773 0.08242876 -0.47717068
0002e0 a9 00 95 be 7b af a8 be 3d 3a 86 be 3a 89 a0 be
       -0.29102066 -0.3294638 -0.26216307 -0.31354696
0002f0 4f 35 c2 bd 41 3e 74 3e eb 69 74 3e 21 ab 8b be
       -0.09482824 0.23851873 0.2386853 -0.27278998
000300 1e 10 11 3e 0c 38 17 3e 4d aa 8b 3e 0a b3 9a bd
       0.14166304 0.14767474 0.27278367 -0.0755368
000310 a7 e4 fd 3e 1b ef 14 3e e2 cb 26 3e e7 e6 7c be
       0.4958851 0.14544336 0.16288713 -0.24697457
000320 fa 03 64 3d ae a4 84 bd af 50 76 be 8d 41 55 3d
       0.055667855 -0.06476723 -0.24054216 0.052064467
000330 23 96 a3 3d 98 6e 18 3e 20 af 5b 3e 5a 96 70 3d
       0.07987621 0.14885938 0.21453524 0.058737136
000340 ec a8 8f 3e c1 9f ac 3e de 63 4e 3e ed 4d 85 3d
       0.28058565 0.33715633 0.20155284 0.06509004
000350 28 72 98 bc 0f da 55 3e 02 0e a1 3e ce ba bb bb
       -0.018609121 0.20883964 0.31456 -0.005729056
000360 be 4d e9 3c a6 eb a9 3e ff 7c a3 bd 3a cb 09 3e
       0.028479453 0.33187598 -0.079828255 0.13456431
000370 71 b2 cd 3e 90 e9 02 bb 89 5a 26 3d ea 70 63 be
       0.40175202 -0.001997564 0.040613685 -0.22211042
000380 df ea c7 3d b1 31 e7 3c 8b f2 43 3d bd 0e fc 3d
       0.09761595 0.028221937 0.04783873 0.123074986
000390 5c 1c 97 3e 83 ff 66 bd 24 1e 1d 3e 70 84 73 3d
       0.29513824 -0.05639602 0.15343529 0.059452474
0003a0 7a 73 65 3e a3 51 87 be 61 3b 9d bd fe da 00 bb
       0.22407332 -0.2642947 -0.07677341 -0.001966178
0003b0 00 aa 27 3e f7 d7 74 3e f2 4c 68 bc 9c af 82 3e
       0.16373444 0.23910509 -0.014178501 0.25524604
0003c0 db 60 2c 3e ad fd 05 3e 20 fd 03 3e 09 39 50 3d
       0.16833822 0.13085051 0.12889528 0.050835643
0003d0 0f 7d b1 3e 65 13 93 3e 56 dc a5 ba 98 de 06 3e
       0.34665725 0.28725734 -0.0012654166 0.1317085
0003e0 f0 d6 21 bd 15 d0 8b 3e bc d9 09 3e 16 f7 79 3d
       -0.03951162 0.27307191 0.13461965 0.061026655
0003f0 58 57 5c 3e a1 1f b0 bc be 54 7f 3e ea da d4 3c
       0.21517694 -0.021499457 0.2493467 0.025983293

sequential_2/dense_8/MatMul f4 [1, 64]
000000 57 51 6e 3e 7f f9 7e bf 91 41 05 bf af 60 8a 3e
       0.23273216 -0.9959945 -0.5205317 0.2702689
000010 61 7f 7c be b4 e1 3b 3e 57 80 ed 3e b9 47 d6 3e
       -0.24657966 0.18347818 0.46386978 0.41851595
000020 71 5f 87 bf 8c 7c 09 bf 89 ac 3d be 3e e5 23 3e
       -1.0576001 -0.5370567 -0.18522848 0.16005418
000030 03 50 0d be 44 f0 c9 bd 9c 2d 25 3e 9c 01 02 c0
       -0.13800053 -0.0986028 0.1613068 -2.0313482
000040 15 50 ce 3e 56 a7 18 c0 e9 e2 15 bf a7 e7 0d bf
       0.40295473 -2.3852134 -0.5854936 -0.554316
000050 e9 fc cb bf 69 1c b3 bd 29 57 1f 3e 78 79 15 bf
       -1.5936557 -0.08745653 0.15560593 -0.5838847
000060 aa ca 6c 3e b8 a3 08 bf 35 aa 1e 3e 45 af 84 3e
       0.23124185 -0.53374815 0.15494616 0.2591497
000070 ba 9d b3 3e 8e 6f cf 3e c8 a6 c3 3e 95 db 3d 3e
       0.35081273 0.40514797 0.38213181 0.18540795
000080 8e d6 bf 3e 19 bd 0f be c7 f6 1c bf 43 3a d2 3e
       0.3746838 -0.14036979 -0.6131405 0.41060075
000090 59 43 19 3e e7 d4 af 3e 99 93 67 be d0 c1 fd bd
       0.14967097 0.3434212 -0.22614898 -0.123904824
0000a0 e3 cc 90 bf 86 51 19 3e cc 3f 65 be 53 ac d2 3e
       -1.1312526 0.14972505 -0.22387618 0.41147098
0000b0 d4 e2 bf 3e 91 f5 04 bf 32 8b 0e bf 84 10 86 3e
       0.37477744 -0.51937205 -0.55681145 0.26184475
0000c0 5a 18 6c 3e c2 66 70 bf 9f b1 98 bd ad 78 96 3e
       0.23056164 -0.93906796 -0.074557535 0.29388943
0000d0 5d 48 5b 3e 88 ec b4 be ce a4 01 be 91 64 01 3e
       0.21414323 -0.3533671 -0.12660524 0.1263602
0000e0 1f af bf 3e 4c 11 30 3e a6 26 33 3e 17 a1 d1 3e
       0.37438294 0.17194098 0.17495212 0.40943214
0000f0 41 fa 3d 3e 18 8e ce bf 6b 93 25 bd d4 36 87 3e
       0.18552496 -1.6137114 -0.04042379 0.26409018
